…
put_mult=0.35,\n             query_mult=1, encoder_depth_ratio=0.25, eot_dropout_p=0.5,\n             cps_input=True, cps_bins=32, lr0=0.0015,\n             clip_gradient_norm=0.2, weight_decay=0.1, warmup_steps=4000,\n             random=False), dataset:torch.utils.data.dataset.Dataset=None)\n\n\nmodel = make_model('small', frozen_embeddings_model='vqmodel-medium-en+pl-512c-dim64.model', dataset=val_ds)\nmodel.load_checkpoint('../t2s_up_wds_mlang_enclm-ryan_cadetblue-5-61631-acc=0.50.ckpt')\nmodel.save_model('t2s-small-en+pl-ryan_cadetblue.model')\n\n\n\n\nTSARTransformer(\n  (lang_embeddings): Embedding(99, 768)\n  (cps_embeddings): Embedding(32, 768)\n  (encoder): Encoder(\n    (embedding): FlexEmbeddings(\n      (main): Embedding(256, 768)\n    )\n    (layers): ModuleList(\n      (0-5): 6 x ResidualAttentionBlock(\n        (attn): MultiHeadAttention(\n          (query): QueryHead(in_features=768, out_features=768, bias=True)\n          (key): Linear(in_features=768, out_features=768, bias=False)\n          (value): Linear(in_features=768, out_features=768, bias=True)\n          (out): Linear(in_features=768, out_features=768, bias=True)\n        )\n        (attn_ln): LayerNorm((768,), eps=1e-05, elementwise_affine=True)\n        (mlp): Sequential(\n          (0): Linear(in_features=768, out_features=3072, bias=True)\n          (1): GELU(approximate='none')\n          (2): Linear(in_features=3072, out_features=768, bias=True)\n        )\n        (mlp_ln): LayerNorm((768,), eps=1e-05, elementwise_affine=True)\n      )\n    )\n    (ln_post): LayerNorm((768,), eps=1e-05, elementwise_affine=True)\n  )\n  (decoder): Decoder(\n    (embedding): FlexEmbeddings(\n      (main): Embedding(513, 64)\n      (emb_to_hidden): EmbeddingProjector(in_features=64, out_features=768, bias=True)\n      (hidden_to_emb): EmbeddingProjector(in_features=768, out_features=64, bias=True)\n      (special): Embedding(1, 768)\n    )\n    (layers): ModuleList(\n      (0-17): 18 x ResidualAttentionBlock(\n        (attn): MultiHeadAttention(\n          (query): QueryHead(in_features=768, out_features=768, bias=True)\n          (key): Linear(in_features=768, out_features=768, bias=False)\n          (value): Linear(in_features=768, out_features=768, bias=True)\n          (out): Linear(in_features=768, out_features=768, bias=True)\n        )\n        (attn_ln): LayerNorm((768,), eps=1e-05, elementwise_affine=True)\n        (cross_attn): MultiHeadAttention(\n          (query): QueryHead(in_features=768, out_features=768, bias=True)\n          (key): Linear(in_features=768, out_features=768, bias=False)\n          (value): Linear(in_features=768, out_features=768, bias=True)\n          (out): Linear(in_features=768, out_features=768, bias=True)\n        )\n        (cross_attn_ln): LayerNorm((768,), eps=1e-05, elementwise_affine=True)\n        (mlp): Sequential(\n          (0): Linear(in_features=768, out_features=3072, bias=True)\n          (1): GELU(approximate='none')\n          (2): Linear(in_features=3072, out_features=768, bias=True)\n        )\n        (mlp_ln): LayerNorm((768,), eps=1e-05, elementwise_affine=True)\n      )\n    )\n    (ln_post): LayerNorm((768,), eps=1e-05, elementwise_affine=True)\n  )\n)\n\n\n\n# baseline\ntrain_ds, val_ds = load_datasets('librilight-mlang-t2s/*.tar.gz', 150000, vq_codes=512+1)\nmodel = make_model('tiny', dataset=train_ds, frozen_embeddings_model='vqmodel-medium-en+pl-512c-dim64.model', tunables=Tunables(weight_decay=1e-3, encoder_depth_ratio=.5, embedding_projector_lr_scale=5, cps_input=True)).cuda()\ntrain(\"ts
…
